checkpoint.pth (torch, 89839 bytes, 6 tensors)

data_fc1.weight f4 [128, 37]
0	0x3e01fdca	0.12694469
1	0x3dab3278	0.083592355
2	0xbe039512	-0.12849835
3	0xbeb509f1	-0.35359147
4	0xbf4ac1f4	-0.792022
5	0x3e167c9d	0.14695974
6	0xbd1de97a	-0.03855274
7	0x3e5688ad	0.20950575
8	0x3d0235cc	0.031789586
9	0x3ebbfa07	0.36714193
10	0xbdc2e473	-0.095162295
11	0x3cd9431f	0.026521264
12	0xbd37bfc4	-0.044860616
13	0xbdba8ed7	-0.09109276
14	0xbe6353d0	-0.2219994
15	0x3df73311	0.12070287
16	0xbdcb3dee	-0.099239215
17	0x3dc2f09d	0.095185496
18	0xbde886b3	-0.11353817
19	0xbeca7abb	-0.3954676
20	0x3e087941	0.13327505
21	0x3e336c38	0.17521751
22	0x3d03d706	0.032187484
23	0xbce58429	-0.02801712
24	0xbd1c742d	-0.03819673
25	0xbc012f9d	-0.007884887
26	0x3e6625fa	0.22475424
27	0xbe0424c3	-0.12904648
28	0x3dcb4cd5	0.09926764
29	0x3daa7bed	0.08324418
30	0xbce3efda	-0.027824331
31	0x3ccc981c	0.024974875
32	0x3cda4bc1	0.02664745
33	0x3c56153e	0.013066588
34	0xbe32fbb0	-0.17478824
35	0x3a5f22e4	0.0008511974
36	0xbc60adc7	-0.013713307
37	0x3e43281c	0.1905827
38	0x3d32bfbf	0.043639895
39	0x3de5cb31	0.11220396
40	0xbc35a3af	-0.0110863885
41	0xbea555fa	-0.32292157
42	0x3d8f7ccb	0.07006224
43	0xbf1c4dea	-0.6105639
44	0xbc8f9a3a	-0.017529596
45	0xbecfac80	-0.40561295
46	0xbf99e72a	-1.2023671
47	0xbb84ecff	-0.0040565724
48	0x3e1140bc	0.1418485
49	0xbd84076d	-0.06446729
50	0x3d799060	0.060928702
51	0x3d7d133e	0.06178593
52	0x3cd5ed6b	0.026114186
53	0xbdc1799a	-0.09447022
54	0x3e72d7c2	0.23715118
55	0x3df07da7	0.11742716
56	0xbd44567d	-0.047934044
57	0xbe1687d6	-0.14700255
58	0x3c6dbba2	0.014510067
59	0xbe3858a7	-0.18002568
60	0x3e2d4722	0.16921666
61	0x3d17730f	0.036974963
62	0xbdd4faea	-0.103994206
63	0x3db9d6f9	0.09074206
64	0x3e51e984	0.20499235
65	0xbe58a1a1	-0.21155407
66	0x3dee99f0	0.11650455
67	0xbdeecf81	-0.11660672
68	0x3e33687b	0.17520325
69	0x3e90e9f9	0.28303507
70	0x3da09e91	0.07842744
71	0x3b9609ad	0.00457879
72	0x3c871a7d	0.016492123
73	0x3b73409b	0.0037117365
74	0x3f077f46	0.5292858
75	0xbdfeeaeb	-0.12447151
76	0xbd816020	-0.063171625
77	0xbeeff9e9	-0.46870354
78	0xbff12772	-1.8840163
79	0xbcba949a	-0.022775937
80	0xbd9b5ad8	-0.075856864
81	0x3da09e3c	0.07842681
82	0x3e5ef149	0.2177173
83	0xbe5dc4f0	-0.21657157
84	0x3caa427c	0.020783655
85	0x3d9901ea	0.07471068
86	0xbd17a042	-0.037018068
87	0x3b85f2fb	0.0040878034
88	0x3d74ab5b	0.05973373
89	0xbd771b37	-0.06032869
90	0x3d863ba8	0.06554347
91	0x3d34e165	0.044160265
92	0x3e8620b9	0.2619684
93	0x3eb8d94b	0.3610328
94	0xbc8e74cf	-0.017389683
95	0xbd9e7541	-0.07737208
96	0x3d37b9ae	0.044854812
97	0xbe200eb4	-0.15630609
98	0xbe001f82	-0.1251202
99	0x3d90f974	0.070788294
100	0x3e74a43a	0.23890772
101	0x3cad14ce	0.021128085
102	0x3d87007f	0.065918915
103	0x3d3d26b0	0.046179473
104	0xbe0565b8	-0.13027084
105	0xbd9219e4	-0.071338445
106	0xbca55fe3	-0.020187324
107	0xbe1cdc1b	-0.15318339
108	0x3c221825	0.009893452
109	0x3dc409a7	0.095721535
110	0x3bacaa3d	0.0052693174
111	0x3e4e1852	0.20126465
112	0x3c0bbd62	0.008529039
113	0x3d6b7de4	0.057493106
114	0x3d6316ed	0.055441786
115	0xbd8e1077	-0.06936734
116	0xbc37ad10	-0.011210695
117	0x3e4d47b6	0.20046887
118	0x3d43558b	0.047689002
119	0x3d51bf24	0.051207677
120	0xbd897976	-0.0671262
121	0x3c7fe272	0.015617954
122	0x3c90877c	0.017642729
123	0x3cf64897	0.03006391
124	0x3c092eb2	0.008372949
125	0xbd3988e6	-0.045296572
126	0xbd638505	-0.05554678
127	0xbcd7826b	-0.026307305
128	0xbd2f6443	-0.042820226
129	0xbcd662d5	-0.026170174
130	0xbd5295cc	-0.05141239
131	0x3d8d5c84	0.069024116
132	0xbe4f168a	-0.20223442
133	0x3d11f23a	0.035631396
134	0x3ded1791	0.115767606
135	0x3df54b4e	0.11977254
136	0xbd2fb45d	-0.042896617
137	0x3d53b44d	0.05168562
138	0x3dac56b7	0.08414977
139	0x3e2e60b9	0.17029084
140	0x3e6b8a43	0.23001961
141	0x3e9efdeb	0.310531
142	0x3d243b45	0.040095586
143	0xbef68668	-0.4814942
144	0xbe81838a	-0.2529567
145	0xbfc03556	-1.5016277
146	0x3ce0896c	0.027409278
147	0x3b65ce2e	0.003506552
148	0xbe27dbec	-0.16392487
149	0xbe054131	-0.1301315
150	0xbd8e106b	-0.06936725
151	0xbce4b16e	-0.027916636
152	0x3da8ff43	0.08251812
153	0xbc5b09f4	-0.013369072
154	0x3ef2191b	0.4728478
155	0xbf0d2826	-0.55139387
156	0x3e3574fe	0.1772041
157	0xbf232de1	-0.6374188
158	0x3d8b24ab	0.06794103
159	0xbde53c7f	-0.11193179
160	0xbd798d88	-0.06092599
161	0xbe039f22	-0.12853673
162	0xbe247081	-0.16058542
163	0xbe19b870	-0.15011764
164	0xbdaaa952	-0.083330765
165	0xbbea42f2	-0.007149094
166	0x3d915b97	0.070975475
167	0xbda775db	-0.08176776
168	0xbe330c94	-0.17485267
169	0xbd505267	-0.050859835
170	0x3e8b709c	0.27234352
171	0xbda3a7b2	-0.0799097
172	0x3ee3fd92	0.44529396
173	0x3dde1f87	0.10845857
174	0xbe8a8840	-0.27057076
175	0x3dab24bc	0.08356616
176	0x3d1014ec	0.035176203
177	0xbead4a57	-0.3384578
178	0x3de60d4a	0.112330034
179	0x3c35a06c	0.011085611
180	0x3de8c134	0.113649756
181	0xbdc9a1d0	-0.098453164
182	0xbd9176d0	-0.0710274
183	0xbc9863c2	-0.018602256
184	0xbb2fe907	-0.0026841776
185	0xbcc52731	-0.02406654
186	0xbdd0eff1	-0.10202015
187	0xbe7af42b	-0.24507205
188	0x3e588175	0.21143134
189	0x3c22c76e	0.009935243
190	0x3e121efe	0.14269635
191	0x3e1f1063	0.15533595
192	0xbde0d9bd	-0.1097903
193	0xbeeeb87e	-0.4662513
194	0xbd3b2e46	-0.045698427
195	0xbdf8bbfd	-0.12145231
196	0xbdc7cb64	-0.097555906
197	0x3e0197aa	0.12655511
198	0xbed01712	-0.406426
199	0xbc465177	-0.012104384
200	0xbd48762b	-0.04894082
201	0x3c9ebe8a	0.019377965
202	0x3d622efc	0.05522059
203	0xbe503d49	-0.20335878
204	0xbe7eb89a	-0.24875107
205	0x3d756919	0.059914682
206	0xbe90d7dc	-0.28289688
207	0x3e6ee8d9	0.23331012
208	0x3e0379e3	0.12839465
209	0x3e1a7a24	0.15085655
210	0xbd9cc755	-0.07655207
211	0xbe968267	-0.29396364
212	0x3e74e080	0.23913765
213	0xbe73dd09	-0.23814787
214	0xbe1ee034	-0.15515214
215	0xbd34e40f	-0.044162806
216	0x3da6e92b	0.08149942
217	0xbea81542	-0.32828718
218	0x3e18744a	0.14888111
219	0xbdb2e7bb	-0.08735605
220	0xbd898e20	-0.06716561
221	0x3c539357	0.0129135465
222	0x3df4784a	0.11937006
223	0x3c037afa	0.008024925
224	0xbe7b1db8	-0.24523056
225	0xbe03fb40	-0.12888813
226	0xbf05fb03	-0.5233614
227	0xbe1b4ba2	-0.1516557
228	0xbe90d405	-0.28286758
229	0x3d8a46f1	0.06751812
230	0x3cf59827	0.029979778
231	0x3e359f02	0.17736438
232	0xbd47a0b7	-0.048737254
233	0x3d2368c4	0.039894834
234	0x3e6a21e9	0.22864498
235	0xbdd3a998	-0.10335082
236	0x3e02dfe2	0.12780717
237	0xbeb46630	-0.35234213
238	0xbe96243b	-0.29324517
239	0x3e2cc107	0.16870509
240	0x3e40baad	0.18821211
241	0xbdb8d21f	-0.090244524
242	0xbdb1efde	-0.08688329
243	0xbedaabc5	-0.42709175
244	0x3e5cef4d	0.21575661
245	0xbdb63b54	-0.08898035
246	0x3e0ce513	0.1375926
247	0xbe8b2ba7	-0.27181742
248	0x3d82ebe7	0.06392651
249	0x3d8ad66b	0.06779178
250	0xbe2a0077	-0.1660174
251	0xbe62afdd	-0.22137399
252	0x3e1240a9	0.14282478
253	0xbdb8fce3	-0.09032609
254	0xbe2e98d5	-0.17050488
255	0xbe51242d	-0.20423956

data_fc1.bias f4 [128]
0	0x3d73cf42	0.05952383
1	0x3da2c216	0.07947175
2	0x3a53e81c	0.0008083598
3	0xbb917183	-0.0044385805
4	0xbbb459e0	-0.005503878
5	0xbe04d3f5	-0.1297148
6	0x3d9efa21	0.07762552
7	0x3d29682d	0.041359115
8	0xbdda2099	-0.10650749
9	0x3cfa6876	0.030567389
10	0xbdc0b0e3	-0.094087385
11	0xbd9395f5	-0.072063364
12	0xbd805fdf	-0.06268286
13	0xbe10e011	-0.14147975
14	0xbd8d2e4c	-0.06893596
15	0xbd18f418	-0.03734216
16	0x3b98b171	0.0046598245
17	0xbd88b542	-0.06675197
18	0xbe15f061	-0.14642479
19	0x3b932d5d	0.0044914917
20	0xbdd20f34	-0.10256806
21	0x3ddf28a2	0.10896422
22	0x3e713107	0.23553859
23	0xbcaa1e73	-0.020766472
24	0xbcfd67af	-0.03093323
25	0x3e292ffb	0.1652221
26	0x3e230b07	0.15922175
27	0xbae4346b	-0.0017410641
28	0xbdb2aae5	-0.08724002
29	0xbd3928b3	-0.04520483
30	0x3e7d9221	0.24762775
31	0x3df072fb	0.11740681
32	0xbe069d36	-0.13145909
33	0x3d815946	0.06315856
34	0xbd25f882	-0.0405202
35	0xbe212b3e	-0.15739152
36	0x3cd6d2af	0.026223509
37	0x3d919671	0.071087725
38	0xbb98c558	-0.004662197
39	0x3c158dd8	0.0091280565
40	0xbda3020a	-0.07959373
41	0x3ddbf8f4	0.107408434
42	0x3e3dfe5f	0.18554066
43	0x3d7a6080	0.061127186
44	0x3d8c746b	0.068581425
45	0xbd8abadf	-0.06773924
46	0x3d2d6d65	0.042340655
47	0xbe0b7c65	-0.13621671
48	0xbe4da8a8	-0.20083869
49	0xbc8e1cef	-0.017347781
50	0x3b6a6e8f	0.0035771464
51	0x3dfb2120	0.122621775
52	0x3d8c8685	0.06861595
53	0x3e07a5d3	0.1324685
54	0x3da7b088	0.081879675
55	0x3d885320	0.0665648
56	0xbd8e7187	-0.06955247
57	0xbdd678dd	-0.104722716
58	0x3bc7cdbc	0.0060975235
59	0xbd853528	-0.065042794
60	0xbdbdfcd6	-0.0927674
61	0x3d2a1588	0.04152444
62	0x3d6fd9df	0.058557387
63	0xbdc48e0d	-0.095974065
64	0x3d94b2dd	0.07260678
65	0xbcf93ca4	-0.030424424
66	0x3d43f0c9	0.047837052
67	0xbddd203b	-0.10797163
68	0xbe475996	-0.19467768
69	0xbe0d473b	-0.13796704
70	0xbd7bbde2	-0.061460383
71	0xbd518eed	-0.051161695
72	0x3e2121e5	0.15735586
73	0xbdec7d2f	-0.115473144
74	0xbe042ed4	-0.12908489
75	0xbd7a9653	-0.061178517
76	0x3e63c7b6	0.22244152
77	0xbdc10167	-0.094240956
78	0x3ded91f7	0.11600106
79	0xb9e0cadc	-0.0004287575
80	0xbd9261f6	-0.07147591
81	0x3d86b4c6	0.065774485
82	0x3d4de92f	0.05027121
83	0xbdfc8ed4	-0.1233193
84	0xbd6d9a7c	-0.058008656
85	0x3e07bb24	0.13254982
86	0x3e18fc88	0.14940083
87	0xbda56d3d	-0.08077476
88	0xbd63542d	-0.0555002
89	0x3d382447	0.04495647
90	0x3dee7823	0.11644008
91	0x3b39b92d	0.0028339133
92	0xbdbde735	-0.09272615
93	0xbe310ba9	-0.17289604
94	0xbd07c90a	-0.03315071
95	0x3d2ea4f4	0.04263778
96	0xbb962bbb	-0.00458285
97	0xbe284936	-0.16434178
98	0xbe265c19	-0.1624607
99	0x3dc639f0	0.096790195
100	0xbddec21a	-0.10876866
101	0xbe209a78	-0.15683925
102	0x3dceae50	0.10091841
103	0x3e0721c7	0.13196479
104	0xbe775152	-0.24152115
105	0xbe39221a	-0.18079415
106	0xbe1960e0	-0.14978361
107	0x3deab221	0.11459757
108	0xbe57d43f	-0.21077059
109	0xbce448f1	-0.027866812
110	0x3e37cae9	0.17948498
111	0xbd41b739	-0.047293875
112	0xbdc16e56	-0.09444873
113	0xbdcafe2e	-0.09911762
114	0x3bcbf9cf	0.006224848
115	0x3e392bf0	0.18083167
116	0x3d2ee0dc	0.04269491
117	0x3e108762	0.14114144
118	0x3a5fddee	0.0008539845
119	0x3d6bcb4f	0.057566937
120	0x3d34bc29	0.044124756
121	0x3d2c1ea5	0.042021412
122	0x3ddb41d2	0.107059136
123	0xbe2fb691	-0.17159487
124	0xbbebbb78	-0.007193979
125	0xbbd37a4e	-0.006453789
126	0x3da43cdc	0.080194205
127	0xbd974807	-0.07386785

data_fc2.weight f4 [128, 128]
0	0xbc3f63d6	-0.011681518
1	0x3bd987a1	0.0066384827
2	0xbdd0ca8e	-0.10194884
3	0x3de9daf0	0.11418712
4	0x3def1de0	0.1167562
5	0x3d8a360a	0.067485884
6	0x3d336de1	0.04380596
7	0x3d98df38	0.074644506
8	0x3cb6c028	0.022308424
9	0x3d86b656	0.065777466
10	0x3dc30263	0.095219396
11	0x3d816b3b	0.06319281
12	0xbd4c4b75	-0.04987665
13	0xbcaf1c28	-0.02137573
14	0xbd572977	-0.05252978
15	0x3cc6d797	0.024272723
16	0xbc038a6d	-0.008028609
17	0x3b834765	0.0040063136
18	0xbda26b2e	-0.07930599
19	0xbd711667	-0.058859255
20	0x3dc537c5	0.09629778
21	0x3cebf5da	0.028803755
22	0x3d03cdb0	0.03217858
23	0xbc952038	-0.01820384
24	0xbc27a074	-0.010231126
25	0x3d6d93e3	0.058002364
26	0x3d2fe456	0.042942367
27	0x3deea62c	0.116527885
28	0x3b7d0133	0.003860545
29	0x3e49016d	0.1962945
30	0xbd36befd	-0.044615734
31	0xbd993ff3	-0.074829005
32	0x3d7b402e	0.061340503
33	0xbe0d1941	-0.13779165
34	0xbdfa93e8	-0.12235242
35	0xbe243c65	-0.16038664
36	0x3d7029c3	0.058633577
37	0x3c608e6d	0.013705832
38	0xbd00b846	-0.031425737
39	0x3d896a63	0.06709745
40	0xbd87035e	-0.06592439
41	0xbd6b0016	-0.05737313
42	0xbd510aa1	-0.051035527
43	0x3d2a744a	0.04161481
44	0x3cd90af7	0.026494486
45	0xbdbf9d3b	-0.09356161
46	0xbcaac8ec	-0.02084776
47	0xbdeea59c	-0.11652681
48	0xbc92d6a8	-0.017924622
49	0xbdf74d73	-0.12075319
50	0xba31fabf	-0.0006789378
51	0x3e2dd94f	0.16977428
52	0xbe1291b7	-0.14313398
53	0x3dac5659	0.08414907
54	0x3d13fcdf	0.03612983
55	0x3de64964	0.11244467
56	0x3dbbaca2	0.091637865
57	0xbe154ca1	-0.14580013
58	0x3dae903d	0.08523605
59	0xbd289ca7	-0.04116502
60	0x3daa7558	0.08323163
61	0x3d919271	0.071080096
62	0x3de8e962	0.11372639
63	0xbcafd79f	-0.02146512
64	0xbd06aa33	-0.03287716
65	0x3d59fcb1	0.0532195
66	0x3d69ac13	0.05704887
67	0xbe004782	-0.12527278
68	0x3d663597	0.05620345
69	0x3c6baaf8	0.014384024
70	0x3de564ef	0.11200892
71	0xbd8072c6	-0.06271891
72	0x3d82b3ac	0.06381926
73	0xbd5f9a98	-0.05459079
74	0xbd8f95ee	-0.07011019
75	0x3cb0ae71	0.021567555
76	0xbe85e1e8	-0.26148915
77	0xbcbd9e9b	-0.023146918
78	0x3ce6c1b4	0.028168537
79	0x3d613ecd	0.054991532
80	0x3d03db6e	0.032191686
81	0x3d881d27	0.06646185
82	0x3dde1f43	0.108458064
83	0xbcfb7cf0	-0.030699223
84	0xbdb38938	-0.08766407
85	0x3b0d7427	0.0021584125
86	0x3c0ab811	0.008466736
87	0x3d652a2a	0.055948414
88	0x3d7967b7	0.060889926
89	0x3de86058	0.11346501
90	0xbd0d7180	-0.03453207
91	0xbd430eb6	-0.04762145
92	0x3c4cd73f	0.012502491
93	0xbd8b1f40	-0.0679307
94	0x3d17f2d9	0.037096832
95	0x3d5719df	0.052514907
96	0xbcd2fce2	-0.02575535
97	0xbd5fbb41	-0.05462194
98	0xbe80209f	-0.25024888
99	0x3cbe61d1	0.023240002
100	0x3d9686e2	0.073499456
101	0x3d20bdce	0.03924351
102	0x3ce84471	0.028352948
103	0x3ceadeef	0.028670756
104	0x3c19337c	0.009350654
105	0x3d0c8f0f	0.03431612
106	0xbe51e61b	-0.20497935
107	0xbd4efed4	-0.05053599
108	0x3da26611	0.07929624
109	0xbd83d9d7	-0.06438034
110	0x3dea7b6e	0.114493236
111	0xbe02467c	-0.127222
112	0xbd1d35b2	-0.038381286
113	0xbd1f3838	-0.038871974
114	0xbdce5c63	-0.10076215
115	0xbd85c3a3	-0.06531455
116	0x3d8eb4ad	0.06968055
117	0x3e18c4f2	0.14918879
118	0xbd89f0c5	-0.06735376
119	0x3e1187da	0.1421198
120	0x3df3dd0f	0.11907398
121	0xbcf48be2	-0.029851858
122	0x3e0c7baa	0.13719049
123	0xbd46aeb9	-0.048506472
124	0x3d4fdde1	0.05074871
125	0xbd528bcb	-0.05140285
126	0x3dcfc393	0.10144725
127	0x3d09727e	0.033556454
128	0x3e4d9ae0	0.20078611
129	0xbda45d97	-0.08025663
130	0x3e89ee59	0.26939657
131	0x3e1e120b	0.1543657
132	0xbdd54cb5	-0.10415021
133	0xbc6f0b3c	-0.014590081
134	0x3d8cbbec	0.06871781
135	0x3d0146f2	0.0315618
136	0xbcf8b2d4	-0.03035871
137	0x3bb04149	0.0053788763
138	0xbc94ac25	-0.018148491
139	0xbe1ead6e	-0.15495846
140	0xbd248ae4	-0.04017152
141	0xbe308431	-0.17237927
142	0xbe05b66f	-0.13057874
143	0xbef38ac5	-0.4756681
144	0x3e2c5e02	0.16832736
145	0xbc8cac1e	-0.017171916
146	0x3e0d235a	0.13783017
147	0x3e17f0b0	0.14837909
148	0xbd829615	-0.06376282
149	0xbeacc33d	-0.33742705
150	0x3d4c5da5	0.049893994
151	0xbf297b32	-0.66203606
152	0xbdbe8074	-0.09301844
153	0x3ded8e39	0.115993924
154	0xbd8481fe	-0.064701065
155	0x3bf96bb1	0.007611715
156	0xbda8d096	-0.082429096
157	0x3e2aab06	0.16666803
158	0xbd6f35f4	-0.058401063
159	0x3e62b72f	0.22140191
160	0xbe38960e	-0.18025991
161	0xbed82e57	-0.42222854
162	0x3d207090	0.039169848
163	0xbe803a67	-0.25044557
164	0xbc7dfb68	-0.015501834
165	0x3e0244fa	0.12721625
166	0xbe15dbff	-0.14634703
167	0xbdcc5194	-0.09976497
168	0xbd895d63	-0.06707265
169	0xbd3d1ba8	-0.046168953
170	0xbc84d654	-0.01621548
171	0xbec1c63d	-0.37846556
172	0xbd819d0c	-0.063287824
173	0xbe05cc5e	-0.13066241
174	0xbdf04066	-0.11731033
175	0x3d0c11e3	0.034196746
176	0x3d7e6189	0.062104736
177	0xbdb8a587	-0.09015947
178	0xbb886490	-0.0041623786
179	0x3d46765d	0.048452724
180	0xbdada0f7	-0.08477967
181	0xbe9543cf	-0.29153296
182	0xbe1e1d67	-0.15440904
183	0xbd90a993	-0.07063594
184	0xbe6981b6	-0.22803387
185	0xbd3f83ec	-0.04675667
186	0xbe912c42	-0.2835408
187	0xbb85490c	-0.0040675458
188	0xbdcc3cda	-0.09972544
189	0xbc29349f	-0.010327487
190	0xbe258a52	-0.16166046
191	0xbe52cab2	-0.20585135
192	0xbe0b8d8e	-0.13628218
193	0x3dd6ddda	0.104915336
194	0x3e57d0c0	0.21075726
195	0x3ea9d491	0.33169988
196	0xb99beac7	-0.00029738827
197	0xbd9a1340	-0.07523203
198	0x3d080e26	0.033216618
199	0xbcb75d3f	-0.02238333
200	0x3d1e0788	0.0385814
201	0xbe8dffa2	-0.27734095
202	0x3ebd0e7f	0.36925122
203	0xbe9c99a2	-0.30585963
204	0x3dee95a1	0.11649633
205	0xbe41eb5c	-0.18937439
206	0xbe2593c7	-0.16169654
207	0x3dd1309a	0.10214348
208	0x3e0e1fd4	0.13879329
209	0x3ca38ca3	0.019964522
210	0xbe999b8b	-0.30001482
211	0xbe7d3286	-0.24726304
212	0xbe044cdd	-0.12919946
213	0x3d6b2553	0.057408642
214	0x3df8aa4b	0.12141856
215	0xbdb16a7f	-0.08662891
216	0x3e68975e	0.22713992
217	0xbcda47d6	-0.026645582
218	0x3ba395da	0.004992229
219	0x3e0ac35c	0.13551086
220	0xba75b10b	-0.000937239
221	0xbd84fcf5	-0.0649356
222	0xbed7bfe9	-0.42138603
223	0x3e66eb8b	0.2255079
224	0xbde24fe3	-0.110503934
225	0x3d9aa5f5	0.07551185
226	0x3df3e75f	0.11909365
227	0x3d86f3d7	0.065894775
228	0x3d2bc053	0.04193146
229	0xbe4f6261	-0.20252372
230	0xbd4be17b	-0.04977558
231	0xbd3d874b	-0.046271604
232	0xbdee4d21	-0.11635805
233	0xbe88f627	-0.267503
234	0xbe382516	-0.17982897
235	0xbd85bb72	-0.06529893
236	0xbcc7bd08	-0.02438213
237	0xbe87370c	-0.26409185
238	0x3b07f520	0.002074547
239	0x3dc5a4ac	0.09650549
240	0xbe515564	-0.2044273
241	0x3e369335	0.17829593
242	0x3e212449	0.15736498
243	0xbe86ff0f	-0.2636647
244	0x3d9a7212	0.075412884
245	0xbe8de814	-0.27716124
246	0xbdac2649	-0.0840574
247	0xbc48ead6	-0.0122630205
248	0xbcfd6e2d	-0.030936325
249	0x3d367d94	0.044553354
250	0x3d5b88ac	0.053597137
251	0xbecd6e17	-0.40123054
252	0x3e092334	0.13392335
253	0x3d1f2830	0.038856685
254	0xbe3b14bf	-0.18269633
255	0xbb86b9bb	-0.0041114963

data_fc2.bias f4 [128]
0	0x3ed48bf4	0.41513026
1	0xbdae1f0b	-0.08502015
2	0xbd5038b0	-0.05083531
3	0x3d743cc7	0.059628274
4	0xbe0a7f93	-0.13525228
5	0x3d9bf441	0.07614947
6	0x3d707f48	0.058715135
7	0xbcf0a2dd	-0.029374534
8	0xb97d9ca6	-0.00024186316
9	0x3eb54222	0.35402018
10	0x3da862c5	0.08221964
11	0x3cea4b2e	0.028600302
12	0xbda153dc	-0.07877323
13	0xbd885553	-0.06656899
14	0x3e0b1c17	0.13584934
15	0xbcfa63f2	-0.030565236
16	0xbe1dbb04	-0.15403372
17	0xbd6758c4	-0.056481138
18	0xbdafb528	-0.08579475
19	0xbe55515b	-0.20831816
20	0xbd7e9b30	-0.062159717
21	0xbd55a934	-0.052163318
22	0xbd5e6a3f	-0.054300543
23	0xbcafcb9e	-0.021459397
24	0x3dcb133c	0.09915778
25	0x3cd65f11	0.026168378
26	0xbd8ee433	-0.06977119
27	0x3d16ae11	0.036787096
28	0xbdabdac6	-0.08391337
29	0x3e6433ae	0.22285339
30	0xbe68c94e	-0.22733042
31	0x3c9cf981	0.019161941
32	0x3e850a4b	0.25984415
33	0x3d366211	0.044527117
34	0xbc4e7c4d	-0.012602878
35	0xbcecf3d3	-0.028924858
36	0x3ce367db	0.027759483
37	0xbca65740	-0.020305276
38	0xbccbbe2c	-0.024870954
39	0xbc2e75b7	-0.010648183
40	0xbdb8ee26	-0.09029798
41	0x3e88a73e	0.26690096
42	0xbcd32e8c	-0.025779031
43	0x3e353e96	0.17699656
44	0xbd7d372f	-0.061820205
45	0x3df00163	0.117190145
46	0xbdcefadf	-0.101064436
47	0x3f06eff4	0.5270989
48	0x3ec36b5b	0.38167843
49	0xbe112f3e	-0.14178178
50	0x3e1cc997	0.15311275
51	0xbdd228af	-0.10261666
52	0xbc1b7a9b	-0.009489681
53	0x3c3e641a	0.011620546
54	0x3d3eec5a	0.04661212
55	0x3db0c084	0.086304694
56	0xbc57e1fc	-0.0131764375
57	0x3de6384a	0.11241205
58	0x3d8fd238	0.07022518
59	0x3c94826a	0.018128593
60	0x3d1fc9e3	0.039010894
61	0xbd9db8a0	-0.0770123
62	0xbde2d5ce	-0.11075936
63	0xbe19e554	-0.15028888
64	0x3cddde5a	0.027083565
65	0xbd6e934a	-0.058245935
66	0xbe3db364	-0.18525463
67	0x3d2f559d	0.042806257
68	0x3e367a62	0.17820123
69	0x3d28972f	0.041159805
70	0x3e1a807c	0.15088075
71	0xbdc1a143	-0.09454586
72	0xbc90e7d5	-0.017688671
73	0x3ef3035e	0.47463506
74	0xbdc00a6d	-0.093769886
75	0xbc1d1874	-0.00958835
76	0x3d97efe6	0.07418804
77	0xbdcdfb45	-0.100576915
78	0xbde79efe	-0.11309622
79	0xbdb3c33b	-0.08777472
80	0x3df1302c	0.11776766
81	0xbcd8bbb1	-0.026456686
82	0x3f05c432	0.52252495
83	0xbdce85b6	-0.10084097
84	0x3b990244	0.0046694595
85	0xbda4c102	-0.08044626
86	0x3d35cf5b	0.044387203
87	0x3c88c8b4	0.016697265
88	0x3e0544d7	0.13014542
89	0xbd96f45f	-0.07370829
90	0x3d40ac18	0.04703912
91	0xbe1404ee	-0.14455006
92	0x3c5a3e19	0.013320469
93	0x3de23363	0.110449575
94	0xbe03df10	-0.1287806
95	0xbd8038a6	-0.06260805
96	0x3d7adee1	0.06124771
97	0xbda4dea7	-0.0805028
98	0x3d44a8d2	0.048012562
99	0xbcba45f7	-0.02273844
100	0x3cbd6879	0.023121106
101	0x3d059b7d	0.03261899
102	0xbddd70d6	-0.10812537
103	0x3c012fc1	0.007884921
104	0x3c9f7d24	0.019468851
105	0x3dce3916	0.10069482
106	0xbcd4f105	-0.025993833
107	0x3edb869c	0.42876136
108	0xbe1bb616	-0.15206179
109	0xbd4d3e7f	-0.05010843
110	0x3e0b546d	0.13606425
111	0xbdfdbd53	-0.12389626
112	0x3ddfe54e	0.10932408
113	0xbd10c706	-0.035346054
114	0x3dcf0ad5	0.10109488
115	0xbd25d023	-0.040481698
116	0xbcab8813	-0.020938909
117	0xbc7c72d5	-0.015408237
118	0xbb59bb30	-0.0033223145
119	0xbd46d156	-0.048539482
120	0x3db7df89	0.08978183
121	0x3ca38e57	0.019965334
122	0xbc1aa416	-0.009438535
123	0xbd76c6b0	-0.060248077
124	0xbd8cdeb1	-0.068784125
125	0xbe234d8e	-0.15947554
126	0x3ca9dfc9	0.020736592
127	0xbd27d113	-0.040970873

data_fc3.weight f4 [4, 128]
0	0x3e172d27	0.14763318
1	0xbc985577	-0.01859544
2	0x3e286874	0.16446096
3	0xbe434fa3	-0.19073348
4	0xbda329d9	-0.07966966
5	0x3e1182c9	0.14210047
6	0x3d193754	0.03740628
7	0x3e4950a8	0.19659674
8	0x3d855425	0.0651019
9	0x3dd45abf	0.10368871
10	0xbedd3849	-0.43207005
11	0xbe7c7c23	-0.2465673
12	0xbdc5ad84	-0.09652236
13	0xbe9e7b13	-0.30953273
14	0x3e62f80d	0.22164936
15	0x3eb84181	0.35987476
16	0xbdc753ec	-0.09732804
17	0x3d49c84c	0.049263284
18	0xbe9bc9f5	-0.30427518
19	0xbe16b256	-0.14716467
20	0x3e102255	0.14075597
21	0x3e7fa637	0.2496575
22	0x3d2a25de	0.04154002
23	0xbc4910eb	-0.0122721
24	0x3e3ca3ea	0.18421903
25	0xbd14d036	-0.036331378
26	0xbed5a627	-0.41728327
27	0xbcaf55fe	-0.021403309
28	0xbd3a02ac	-0.045412704
29	0x3d28aca6	0.041180275
30	0xbe5de92d	-0.21670981
31	0xbd3026a7	-0.04300561
32	0x3d9fc5d0	0.078014016
33	0x3e719098	0.23590314
34	0x3e75589d	0.23959585
35	0xbd122887	-0.03568318
36	0x3ebc50d4	0.36780417
37	0xbdcc7081	-0.09982396
38	0xbed5d56c	-0.4176439
39	0xbd5c2832	-0.05374927
40	0x3ba8b181	0.0051481132
41	0x3d6ab07a	0.057297207
42	0x3ea9e0c8	0.33179307
43	0x3d084a3b	0.033273917
44	0x3cb039e0	0.021511972
45	0x3e5bd568	0.21468127
46	0xbccfc54d	-0.025362635
47	0x3e039c4c	0.12852591
48	0x3dcc0874	0.0996255
49	0x3eca5cea	0.39524013
50	0x3ddfb187	0.109225325
51	0xbe7ccc91	-0.24687411
52	0xbe023d7d	-0.12718768
53	0x3db0e6fd	0.086378075
54	0x3e9d30ad	0.307012
55	0x3d96f9e6	0.07371883
56	0x3e1b8f2c	0.15191334
57	0x3de7f36a	0.113257244
58	0x3f04fab3	0.51945037
59	0x3e85799e	0.2606935
60	0x3e48f727	0.19625531
61	0x3df64896	0.120255634
62	0x3d4e9127	0.050431397
63	0xbdc44c9c	-0.095849246
64	0x3da6d7b9	0.081466146
65	0xbe85a6c3	-0.26103792
66	0xbe4e974c	-0.20174903
67	0x3d80bd2c	0.06286082
68	0x3e0e7d3e	0.13914964
69	0xbceacb60	-0.02866143
70	0x3e47b0c7	0.19501029
71	0xbd5dbf8f	-0.054137763
72	0x3e997cb4	0.29977953
73	0x3dfa00ea	0.122072056
74	0xbdb62dd4	-0.0889546
75	0x3e0ad4d2	0.13557747
76	0x3e564553	0.20924883
77	0x3d137a94	0.03600557
78	0xbec34851	-0.3814111
79	0xbed6f6b2	-0.4198509
80	0x3decc801	0.11561585
81	0xbf19ff55	-0.6015523
82	0x3e3e30b0	0.1857326
83	0xbe4e48bc	-0.20144933
84	0x3de79e74	0.113095194
85	0x3e2634f4	0.16231138
86	0x3da06b0b	0.07832917
87	0x3e08b361	0.13349678
88	0x3dea1a90	0.11430848
89	0xbe63e2b7	-0.22254454
90	0xbbe99042	-0.0071277926
91	0xbd7f6a9d	-0.062357534
92	0x3dc55f4e	0.096373186
93	0x3dfec43f	0.12439775
94	0xbd978660	-0.07398677
95	0xbc2abf97	-0.010421655
96	0x3daa97d5	0.08329741
97	0xbde24ea3	-0.11050155
98	0x3d809dbf	0.06280088
99	0xbe5edfe2	-0.21765092
100	0x3d80a6a8	0.06281787
101	0x3d55a23e	0.05215668
102	0x3c33efa2	0.010982426
103	0x3d82644b	0.063667856
104	0x3dd9610c	0.10614213
105	0xbdc161fa	-0.09442516
106	0x3e403e0f	0.18773673
107	0x3e550469	0.20802464
108	0xbe46acfd	-0.19401927
109	0x3dbf4d56	0.093409225
110	0x3dd1a184	0.10235885
111	0xbe1c462a	-0.1526114
112	0x3e0e9b5e	0.13926455
113	0xbc6f8f94	-0.014621634
114	0x3de824f8	0.11335176
115	0xbe8f5935	-0.27997747
116	0xbc2588ff	-0.010103463
117	0x3c8a2c75	0.016866902
118	0xbebcc16a	-0.36866313
119	0xbe15236f	-0.14564298
120	0x3e319018	0.17340124
121	0x3de05995	0.109545864
122	0x3e942d0c	0.28940618
123	0x3f22ff7b	0.6367108
124	0xbd0d34d4	-0.03447421
125	0xbe4edb58	-0.2020086
126	0xbeca7091	-0.39539006
127	0xbea709e8	-0.32624745
128	0x3d8c4980	0.068499565
129	0x3e159670	0.14608169
130	0x3e143f6d	0.1447732
131	0xbefefc10	-0.49801683
132	0xbdf3874a	-0.11891039
133	0x3dc12f4b	0.094328485
134	0xbd4426f6	-0.04788872
135	0x3ec4df50	0.38451624
136	0x3e5e5e96	0.21715769
137	0x3dcaa585	0.098948516
138	0x3d8227db	0.06355258
139	0xbe3dfffc	-0.18554682
140	0xbdb7f9ba	-0.089831784
141	0xbdf80865	-0.12110976
142	0x3e237dc1	0.1596594
143	0x3e92b4ca	0.28653556
144	0x3e10d6af	0.14144395
145	0x3d5994f0	0.053120553
146	0xbd92041b	-0.07129689
147	0xbe58401d	-0.21118207
148	0x3de8664f	0.11347639
149	0x3e476156	0.19470724
150	0xbd3c8741	-0.046027426
151	0xbe26b050	-0.16278195
152	0x3e60d89a	0.21957627
153	0x3d631ad8	0.055445522
154	0x3ddec28f	0.10876953
155	0x3e050795	0.12991174
156	0x3db9d19f	0.09073185
157	0x3dc1b7a0	0.09458852
158	0xbe496398	-0.19666898
159	0xbcfae2e1	-0.030625762
160	0x3e1670dc	0.1469149
161	0xbd054bef	-0.03254312
162	0x3d1c2a54	0.038126305
163	0xbc3880ca	-0.011261174
164	0x3e845e47	0.25853178
165	0xbe467a03	-0.19382481
166	0xbef4fcea	-0.47849208
167	0x3ece53b8	0.40298247
168	0x3e685348	0.2268802
169	0xbd7585ab	-0.05994193
170	0x3f1280ee	0.5722798
171	0x3d8543d6	0.06507079
172	0x3dec8a21	0.115497835
173	0x3e33f218	0.1757282
174	0xbd50e638	-0.051000804
175	0x3e078675	0.13234885
176	0x3debb8e9	0.11509878
177	0x3f1e8b75	0.61931545
178	0x3e3cfd5d	0.18456025
179	0xbdbdc4e7	-0.09266072
180	0xbe92135a	-0.2853039
181	0xbe09016d	-0.1337945
182	0x3e5b88e6	0.21438941
183	0x3caf78f5	0.021419981
184	0x3d92039c	0.07129595
185	0x3d8a2879	0.06746001
186	0x3ecaf6e7	0.39641497
187	0x3e96d320	0.2945795
188	0x3eae6591	0.34061864
189	0x3b23c7a7	0.0024990828
190	0x3e3a30ed	0.18182726
191	0xbe10305a	-0.14080945
192	0xbc165cf0	-0.009177431
193	0xbdf2de4d	-0.11858807
194	0xbdc0c897	-0.094132595
195	0x3db2de4d	0.08733807
196	0x3dd4b161	0.10385395
197	0x3d467627	0.048452523
198	0x3ddc1474	0.107460886
199	0x3da67e9e	0.08129619
200	0x3e8dc1f1	0.27687028
201	0x3e06b8d4	0.13156444
202	0x3e0f906b	0.14019935
203	0x3e89bc9b	0.26901707
204	0x3de7d8d3	0.11320653
205	0xbc262ecd	-0.010142994
206	0x3d87ee70	0.06637275
207	0x3d31bc93	0.04339273
208	0x3d8ba06a	0.06817706
209	0x3dbc6e7f	0.09200763
210	0x3e335aa0	0.1751504
211	0xbee9f82f	-0.45697162
212	0x3e3af9bb	0.18259327
213	0x3e6d6362	0.23182443
214	0x3da7dca6	0.08196382
215	0x3dfbb110	0.12289631
216	0x3e19606d	0.1497819
217	0xbd82e880	-0.06392002
218	0x3d6d6e1f	0.057966348
219	0xbd7c8d48	-0.061658174
220	0x3e3eb347	0.18623076
221	0x3d99c868	0.075089276
222	0xbd7299fa	-0.059228875
223	0x3d659587	0.056050804
224	0x3d96a1b4	0.07355061
225	0xbe372bbb	-0.17887776
226	0x3dc4f6a4	0.096173555
227	0x3e3ab145	0.18231685
228	0x3d2eb12f	0.042649444
229	0xbddd0cc5	-0.10793451
230	0xbd85408f	-0.06506454
231	0x3e368428	0.17823851
232	0xbd5a53b8	-0.053302497
233	0xbe96084f	-0.29303214
234	0xbd149629	-0.036276016
235	0x3e1eb8bf	0.15500163
236	0xbdcb3d05	-0.09923748
237	0x3e85e2f8	0.26149726
238	0x3d9aa685	0.07551292
239	0xbda70037	-0.08154338
240	0x3d4d8be4	0.05018224
241	0x3dd96cc3	0.10616448
242	0x3dd092dd	0.10184262
243	0x3e35f22a	0.1776816
244	0xbe39e6b0	-0.18154407
245	0x3c83eeaa	0.016105015
246	0x3d311304	0.043231025
247	0xbdcc67f5	-0.09980766
248	0x3e560416	0.20899996
249	0x3ce77e79	0.028258549
250	0xbedac3bd	-0.4272746
251	0x3ef1107d	0.47082892
252	0x3d946194	0.07245174
253	0x3cb51fea	0.022109944
254	0xbde0ce67	-0.10976868
255	0xbe6e6d0c	-0.23283786

data_fc3.bias f4 [4]
0	0x3e887a58	0.2665584
1	0x3e933fba	0.28759557
2	0x3ea60b3d	0.3243045
3	0x3e9eb56b	0.30997786
